model2.onnx (onnx, 553285 bytes, 16 tensors)

cnn.conv1.weight f4 [64, 1, 3]
000000 e0 3a 0e be d0 f8 7f 3e ba d6 8f be 7a 70 65 3e
       -0.13889647 0.24997258 -0.2809351 0.22406188
000010 bf 44 9b 3d 92 29 a8 3d 0a af be 3e 03 96 8a be
       0.07581472 0.08211054 0.3724292 -0.27067575
000020 ed 32 24 3e 60 12 c1 3e dd 81 4b 3e ce cb a8 bd
       0.16035052 0.37709332 0.19873758 -0.08241998
000030 63 80 8a 3d b6 db 10 be 86 8b a4 3d 42 cd c5 be
       0.06762769 -0.14146313 0.080344245 -0.38633162
000040 63 6b cd 3e 15 88 6b 3e aa 75 3c bc ba 29 0f 3e
       0.40120992 0.2300113 -0.011502663 0.13980761
000050 24 0f 88 3c 70 0c f9 be 6e f3 ab 3d 08 1d 94 3e
       0.016608782 -0.48642302 0.0839604 0.289284
000060 f6 17 04 3e 65 0d b9 3e 16 0d 30 be f4 6d 48 3e
       0.12899765 0.36143032 -0.17192492 0.19573194
000070 54 3c 10 bf 09 1d d5 3e ec 00 96 3e 6e ae 31 be
       -0.56342053 0.41623715 0.29297578 -0.17351696
000080 40 37 cf be ee 0c 9c be e0 93 4d be d5 a1 06 3f
       -0.4047184 -0.30478615 -0.20075941 0.52590686
000090 da 37 1b 3f dd ad e2 be 7c 51 92 be e7 44 83 bd
       0.606321 -0.44273272 -0.28577793 -0.064096265
0000a0 d4 16 e9 be 99 c1 e4 3e ee 09 1d 3e 18 0b cb 3e
       -0.4552523 0.44678953 0.15335819 0.396569
0000b0 89 74 b0 be 05 a4 f4 3e 4c 47 4c be 98 05 76 be
       -0.3446391 0.47781387 -0.19949073 -0.24025571
0000c0 ba 47 b2 be de e0 8e bb 15 13 6d bd f1 4e 84 3e
       -0.34820348 -0.0043603024 -0.057879526 0.25841478
0000d0 f8 2a 55 3e 18 fa f4 be 87 16 d6 bd e3 73 b3 3e
       0.20817173 -0.47847056 -0.104535155 0.35049352
0000e0 5d 94 cc 3e 54 86 9f 3e 0c ff 8c 3e 81 15 3f 3e
       0.39956942 0.31157172 0.27538335 0.18660547
0000f0 97 78 d0 3d 12 c7 b4 be ba 4a 41 3e 32 c5 50 3e
       0.10179251 -0.3530813 0.18876162 0.20387724
000100 26 12 70 bd 2a 41 41 be 91 a8 c4 3e 27 6f e3 bc
       -0.058611058 -0.18872514 0.38409856 -0.027762963
000110 7c 1f 14 bd aa 4e 81 3e a4 32 ae 3e 48 33 24 bd
       -0.03616284 0.25255328 0.3402301 -0.040087968
000120 52 ff a3 be b8 2a d5 bd b1 90 4a bd b9 b4 8a be
       -0.3203073 -0.104085386 -0.049454395 -0.27091005
000130 e8 ae a2 3e e9 9f 9b 3e 4e 1f 4b 3e a7 5e 8e 3e
       0.31774068 0.3039544 0.1983616 0.2780659
000140 71 54 9d bd 9d 2e 08 bf 97 d7 84 be 3d fe 15 3f
       -0.076821215 -0.53196126 -0.25945732 0.5859106
000150 51 c3 3b 3e 21 13 81 be ce b8 9b 3d 9e be 7b bd
       0.18336226 -0.25209907 0.07603608 -0.061461084
000160 38 34 f4 be f4 8b fc 3e d8 2c 97 3d 74 d8 ec be
       -0.4769609 0.49325526 0.073816 -0.4625889
000170 3f 8d ce 3e ce 34 ba 3d 7c fc ca bd 0a 88 0d 3d
       0.40342137 0.09092103 -0.09911439 0.034553565
000180 6b 6e 94 3e a3 d4 55 3e 6f 39 00 3f 44 58 18 be
       0.28990492 0.20881896 0.50087637 -0.1487742
000190 82 1c b3 3e 98 8c 1d be f2 7f d0 3e 7d 01 b4 be
       0.34982687 -0.15385664 0.40722615 -0.35157385
0001a0 6e 48 f3 be 8c 5f 6c be 16 15 18 3e 6d 52 47 3e
       -0.47516197 -0.23083323 0.14851794 0.19465037
0001b0 7a d8 82 3e 90 28 76 3e a9 70 46 be ef 9e be 3e
       0.25555784 0.24038911 -0.19378914 0.37230632
0001c0 a3 96 1b be 40 a4 e6 3e b0 eb 18 be b3 c1 c8 3d
       -0.15194182 0.45047188 -0.14933658 0.0980257
0001d0 83 a4 b9 be 81 8b a6 3e 81 a8 05 be ff 6a 50 be
       -0.36258325 0.32528308 -0.1305256 -0.20353316
0001e0 b5 2f 0c 3f c1 3a e9 be 5e dc d4 bd 71 07 fb be
       0.54760295 -0.45552638 -0.10393594 -0.49029115
0001f0 04 e7 c5 be 35 28 19 be 18 bf 55 3e 31 13 80 3e
       -0.38652813 -0.14956744 0.20873678 0.25014642
000200 f5 07 7b 3d 68 d9 14 bf f3 da 36 3e 2f 81 d3 3e
       0.061286885 -0.58144236 0.1785696 0.41309497
000210 9a 12 1b 3e 5b 4f f0 be 36 aa e1 3e 19 3f 4c 3e
       0.15143815 -0.46935543 0.44075173 0.19945945
000220 c3 8b d0 3e 74 fc dd 3e a5 89 df 3e 84 e9 b5 be
       0.4073163 0.4335667 0.43659702 -0.3552972
000230 23 59 b4 be 34 f4 a7 be ab f4 9a 3e 74 3e 6d 3d
       -0.35224256 -0.328035 0.30264792 0.057920888
000240 86 71 f2 be 84 68 ba 3e 45 ae c5 3e 80 2f d7 3e
       -0.47352237 0.36407864 0.3860952 0.42028427
000250 41 26 dd 3d 1e 37 1a be 89 81 26 3e b6 28 3a be
       0.10798312 -0.15060088 0.16260351 -0.18179592
000260 28 06 07 be 3a 3a ca 3e f1 f1 4b be 25 f7 3c bd
       -0.13185942 0.39497548 -0.19916512 -0.046134133
000270 86 f1 5b 3e 5b 84 29 bd c8 48 c6 3e c9 e1 2c be
       0.21478853 -0.04138599 0.38727403 -0.16883005
000280 17 34 d8 3e 7e c9 92 3e ef 61 50 be e8 d6 d5 be
       0.4222724 0.2866935 -0.20349859 -0.41765523
000290 7a 11 e6 3e 13 76 b8 be da 6c d5 3e 20 74 cd 3c
       0.4493521 -0.36027583 0.4168461 0.025079787
0002a0 5f 47 cf 3e 8b ca 1e 3e bf 9a 8e 3d ee 00 2b be
       0.4048414 0.15506952 0.06963109 -0.16699573
0002b0 52 c3 82 3e 59 cb 86 bd f5 66 57 be f9 69 15 3e
       0.25539643 -0.06581754 -0.21035369 0.14591207
0002c0 0e 12 40 3e 2e d9 01 bf 1c 0a 02 3f c2 bc 16 bc
       0.18756887 -0.50722015 0.50796676 -0.009200277
0002d0 b5 0c 80 be 91 34 7d 3e 0b 26 b9 be d3 bc 10 bd
       -0.25009695 0.24727084 -0.36161837 -0.035336327
0002e0 23 c7 21 be ad fd ab 3e 88 e2 dc be 06 bc 90 3d
       -0.15798621 0.33591977 -0.4314158 0.070671126
0002f0 ac 28 d9 3e b9 0b 83 bd 8b df bd bd da 81 b3 be
       0.42413843 -0.0639872 -0.09271153 -0.35060006

cnn.conv1.bias f4 [64]
000000 d5 20 84 be 1b 7a af 3c 01 9f 0e 3f 21 c7 07 bf
       -0.258063 0.02142053 0.5571137 -0.5303822
000010 c1 a8 0d 3f 98 9e 02 3f e5 e9 36 bf 08 cf d4 bd
       0.55335623 0.51023245 -0.71450645 -0.103910506
000020 d8 e3 19 bf a4 16 a7 be cd cb 54 bd 7c 67 ea 3d
       -0.60113287 -0.3263446 -0.051952172 0.11445519
000030 b7 84 b5 3e 00 b5 e0 3d c0 a8 68 3e 94 7c 31 bf
       0.35452816 0.10972023 0.22720623 -0.69330716
000040 ce cd 23 be b7 8a c4 3e 1d 45 dc be 44 b8 41 bb
       -0.15996477 0.3838708 -0.4302148 -0.0029559294
000050 32 94 ce be 18 1e 04 3f 4e fd 89 be 71 6a 4d bf
       -0.4034744 0.5160842 -0.2695107 -0.8024054
000060 c1 67 68 bd 1b 87 5a be 03 04 e5 be 68 84 36 bf
       -0.056739572 -0.21340601 -0.44729623 -0.71295786
000070 9c 72 f7 3e 1b f4 12 bd 22 b4 23 3f 34 4c 16 3f
       0.48329628 -0.03587733 0.63946736 0.58710027
000080 02 85 b2 3d df 73 34 bf f1 b2 92 be 41 08 42 3d
       0.087167755 -0.70489305 -0.28652146 0.047371153
000090 17 ba fd be 37 db 35 bf 3c 2c 4c be 94 03 da 3e
       -0.49556038 -0.7103762 -0.19938749 0.42580855
0000a0 77 a9 a4 be a5 47 14 be ad a8 fd be e3 ec 3e be
       -0.3216054 -0.14480455 -0.49542752 -0.18645053
0000b0 fa f9 a9 3e 2a 8f 0f bf 17 c8 c2 3e 02 e9 b9 be
       0.3319853 -0.56077826 0.3804328 -0.36310583
0000c0 29 0b b0 3e c4 4e 33 bf 8a 48 bb bd 7d e1 d3 3e
       0.34383515 -0.7004206 -0.09144695 0.4138297
0000d0 72 7f ba 3e 2b d5 d0 3e 42 79 ec be af 35 7f 3e
       0.36425358 0.40787634 -0.46186262 0.24922822
0000e0 ae a6 38 3d 9f 5c 0d 3e 0f 82 43 bf 39 fa a0 be
       0.045080833 0.13804863 -0.7637033 -0.31440905
0000f0 a6 6c 30 bf d1 e0 b5 be 1b 6f 58 be 2b 0e 19 3e
       -0.68915784 -0.35523084 -0.21136133 0.14946811

cnn.conv2.weight f4 [128, 64, 3]
000000 40 5c 67 bb 9c 2f e3 3c ca 19 d5 bc 72 95 af bc
       -0.0035302788 0.027732663 -0.026013274 -0.021433566
000010 c4 3c 8e bd 88 6c 6f bd 61 ca 4d bd 10 7d 8c bd
       -0.06945184 -0.058453113 -0.05024183 -0.06859791
000020 24 51 6e 3d 87 b2 91 bd 00 2b ea bc 60 a3 3a 3d
       0.05818285 -0.071141295 -0.028584957 0.045565963
000030 04 87 60 3d 70 81 c4 3b 01 dd 83 bd 68 07 15 3d
       0.05481626 0.0059968755 -0.064386375 0.036384016
000040 24 3c 65 bd 17 b3 d3 bc f0 4f 0b bd 34 1b 66 3d
       -0.055965558 -0.025842233 -0.03401178 0.056178287
000050 4e ae 2c 3d 6c 0a 3d 3d 85 b8 4c bd 66 3d 8a bd
       0.042158417 0.046152517 -0.04998066 -0.06749992
000060 72 05 28 3d 40 99 2f bb 54 cb e9 3c 2c 9f 19 3d
       0.041020818 -0.0026794225 0.028539337 0.037505314
000070 10 ca 15 3d b0 3f 70 3d b2 5d 87 bd 5c 0b 1c bd
       0.036569655 0.058654487 -0.06609668 -0.03809677
000080 46 4f 63 3d f3 23 86 bc bb f8 ae bc 98 91 c1 bc
       0.055495523 -0.016374564 -0.021358838 -0.023628995
000090 bc 33 6b 3b 2b b4 1c bd a6 e4 21 bd c5 ae 04 bd
       0.003588899 -0.03825776 -0.039524697 -0.032393236
0000a0 d0 18 d3 bb 00 79 6e 3b 75 d6 7a 3c 13 29 1a bd
       -0.006442167 0.003638804 0.01530992 -0.037636828
0000b0 ec 16 83 bd d0 f4 6d 3d 7a 71 4a bd 7a 52 83 3d
       -0.064008564 0.0580948 -0.049424626 0.064122155
0000c0 6e 3d 28 bd 3e 75 06 3d 5d d3 41 3b 74 a8 e6 bc
       -0.04107421 0.032826655 0.0029575445 -0.028156497
0000d0 7e 14 4c bc f2 73 6c bd e0 66 07 bd d4 44 96 bc
       -0.012456058 -0.05772776 -0.033057094 -0.018343367
0000e0 80 a8 63 3b c9 99 ca 3c 41 ef 83 3c 50 e4 ba bc
       0.0034737885 0.024731534 0.016105296 -0.022813946
0000f0 9e 86 82 bc 40 2a 15 3c 73 8e 07 bd ac 81 17 3d
       -0.015933331 0.0091043115 -0.033094835 0.0369889
000100 2a a3 49 3d 56 b2 ce bb fe 47 53 bd 4e 84 3f 3d
       0.04922787 -0.0063078804 -0.05158233 0.046757035
000110 fc b6 74 bd 5a 5c a8 bc bc 00 67 3d a2 2d 1d 3d
       -0.05974482 -0.02055185 0.056397185 0.038373597
000120 9e ba 07 bd b8 db ab 3c 9c 82 9d bc a0 82 11 3b
       -0.033136956 0.020978794 -0.019227318 0.0022203103
000130 de eb 2f 3d 3e 35 70 bd 30 8c 02 3c 8c 1d 53 3d
       0.04294955 -0.058644526 0.007967994 0.05154185
000140 8c 32 8e 3c ae 88 0c 3d 94 ac 30 3d 50 83 82 bb
       0.017358087 0.034310035 0.043133333 -0.003982939
000150 e8 d9 b1 bb 6f 78 92 bc 64 fd 4d bd b7 cc 83 bd
       -0.005427588 -0.017879693 -0.05029048 -0.06435531
000160 34 86 91 bd 39 99 23 bd f3 f7 bf bc cb 34 ca 3c
       -0.07105675 -0.039941046 -0.023433661 0.024683377
000170 00 e6 bb bb 44 39 73 3d 6b 88 eb 3c c5 38 e9 bc
       -0.0057342052 0.059380785 0.028751573 -0.028469453
000180 47 57 39 3d 57 e1 2a bd 70 68 b4 bb f0 ed f3 3c
       0.04524925 -0.041718807 -0.005505614 0.029776543
000190 b6 ca 2a bd 2a 63 4c 3d b8 01 ce bc 90 0f 31 3d
       -0.041697226 0.049899258 -0.025147304 0.043227732
0001a0 08 3d 51 3d 58 a8 53 bc 8f 6b 3b 3d 79 94 85 bd
       0.051083595 -0.012918554 0.045756873 -0.065224595
0001b0 a0 3d 6c bb 0c db 47 bd 4c af 8e bd c0 6a 51 3d
       -0.0036047474 -0.048792884 -0.06967029 0.051127195
0001c0 0c 44 63 bd 8a 4c 8f bd 4e bf 45 3d 0c fc 5f bc
       -0.055484816 -0.069970205 0.048278145 -0.0136709325
0001d0 60 c7 39 bc c4 b9 94 bc 76 40 45 3d c2 90 1d 3d
       -0.011339039 -0.018154986 0.048157178 0.03846813
0001e0 b4 8e 73 3d 04 c5 8d bc d9 0b 17 bd 0c ec 86 bd
       0.059462264 -0.017305858 -0.036876533 -0.06587991
0001f0 9d 55 0e bd 76 15 08 bd 0e 8b 8c 3d f2 1a 2c bd
       -0.034749616 -0.03322359 0.0686246 -0.042017885
000200 e0 11 9c bb a0 29 fc bc 8a 0d 86 bd 34 5f e2 3c
       -0.004762873 -0.030781567 -0.06545551 0.027633287
000210 29 20 f9 3c d5 42 48 3d 90 a6 0d bc 60 0c 71 bb
       0.030410843 0.04889186 -0.008645669 -0.0036781058
000220 9a 34 24 bd 88 99 4d bd aa 39 92 bd c1 16 f9 3c
       -0.040089227 -0.050195247 -0.07139905 0.030406358
000230 a8 4c 4b 3c 1a d5 8e 3d 1c 7c 06 bd 17 00 16 bd
       0.012408413 0.0697424 -0.032833204 -0.03662118
000240 e1 52 3b 3d 2a dd 84 bd d6 e4 5f bd 4a 49 00 3d
       0.045733336 -0.06487496 -0.054661594 0.031319894
000250 ec ed aa 3c 46 f1 4e bd a0 5a 30 3d c0 6a c3 bc
       0.020865403 -0.050523065 0.043055177 -0.023854613
000260 d0 5d 50 bd 2b 36 8e 3d 6c 8d 83 bd ae 5e ff 3c
       -0.050870717 0.069439255 -0.064234585 0.031173076
000270 b3 ca 4f bd 9e 58 ac bc bc e5 e8 3c 76 d2 f4 bc
       -0.05073042 -0.02103835 0.028429858 -0.029885512
000280 a5 7c 79 bc af cd 8b bd 60 43 37 3b 36 b2 f1 bc
       -0.0152274715 -0.068263404 0.0027963743 -0.029503923
000290 60 aa 0d 3d 12 ca 91 bd af 36 88 bc 92 62 5c 3d
       0.03458631 -0.0711862 -0.016627638 0.05380494
0002a0 64 44 0a bd d7 04 02 bd f4 ce 73 bc 97 9f 25 3d
       -0.03375663 -0.031742897 -0.014880884 0.0404354
0002b0 c0 09 0b bd 8b c1 eb 39 b0 ae 65 3d 5b f3 7f bd
       -0.033944845 0.00044966894 0.056074798 -0.06248794
0002c0 76 d3 47 bd 08 c3 31 3c 0a 20 82 3d 80 25 8a bd
       -0.04878565 0.010849722 0.06353767 -0.06745434
0002d0 9a 13 80 bd 92 9c cd bc ae 14 9b bc 60 9a 93 bd
       -0.06253739 -0.025099073 -0.01893076 -0.07207179
0002e0 7c 10 2c bd 3c e5 89 3c f0 3d 45 3d a8 7c 69 3d
       -0.04200791 0.01683294 0.04815477 0.057003647
0002f0 86 25 82 bd ba 16 4d bd 5a c4 86 bd bb 92 39 3d
       -0.06354813 -0.050070502 -0.0658042 0.04530595
000300 3d 83 f2 3c 05 90 98 bc 56 4b 3d bd f5 da ea bb
       0.029603595 -0.018623361 -0.046214424 -0.007167215
000310 75 9b 53 bd 0d a7 4d 3d 47 98 34 bc 5f b3 ab bb
       -0.051661927 0.05020814 -0.011022634 -0.0052398886
000320 3d fd 3c bd aa 9b 82 bc 10 9c 61 bd 8a 39 20 3d
       -0.046139944 -0.015943367 -0.055080473 0.039117374
000330 fa 8d 16 3d 43 24 60 3d b0 b1 7c 3c 95 2e 13 3d
       0.036756493 0.054722082 0.015423223 0.035933096
000340 0d 35 39 bd a0 d7 f2 bc 25 67 85 bd 3e 68 82 3c
       -0.04521661 -0.029643834 -0.06513814 0.015918847
000350 27 45 16 3d 2d 21 01 bd d8 ca 50 bd 40 01 65 bd
       0.036687043 -0.03152578 -0.050974697 -0.055909395
000360 ac 8e 56 3c a9 a4 42 3d 95 a3 6f bd 7b 95 23 bd
       0.013095539 0.047520313 -0.058505613 -0.039937478
000370 07 c1 90 bc 52 ef c4 3c b9 ef 9e 3c 8a 5c 01 bd
       -0.017670168 0.024039898 0.019401418 -0.031582393
000380 d8 01 5a bc 6b d7 ea 3b b2 51 63 bd 51 17 82 3d
       -0.013306104 0.007166793 -0.055497833 0.063521035
000390 f4 00 06 bd 44 da 22 3d af 39 90 bd 68 b8 20 bd
       -0.032715753 0.039758936 -0.07042252 -0.039238364
0003a0 d4 5b 31 3d be ce 2e bd a9 86 3f bd cc 6f a4 bc
       0.043300465 -0.042677633 -0.04675928 -0.02007284
0003b0 1b 2d 5b bd 09 db 13 3d ee d9 92 ba e0 cc 09 3d
       -0.053509813 0.03609756 -0.0011203864 0.03364265
0003c0 9f 28 92 bc 7a ff ca 3c 84 c4 e3 3c 4f f4 e7 bc
       -0.017841635 0.024780024 0.027803667 -0.028314738
0003d0 54 65 61 3a 7c 61 c4 b9 92 24 90 bd e6 61 4a bd
       0.0008598168 -0.00037456665 -0.07038225 -0.04940977
0003e0 6a 02 e6 3c 8e 39 80 3d 6b 65 ad bb 38 f3 d2 bc
       0.028077323 0.06260978 -0.005291631 -0.025750741
0003f0 f8 4f 14 bc 45 54 ad bc c3 f5 a4 3c 89 af 3f bc
       -0.009052269 -0.021158347 0.02013672 -0.011699566

cnn.conv2.bias f4 [128]
000000 0d 7c 25 3d 02 c9 a7 bc 95 08 5e be fb 68 86 bd
       0.040401507 -0.02048159 -0.21682961 -0.06562992
000010 ea cb 4d 3d 1b 4e 94 bd 03 57 0d 3d 3f d3 21 be
       0.050243296 -0.0724146 0.03450681 -0.1580324
000020 65 f9 19 3d 07 20 80 bd 7e be 47 3d f0 32 6f bd
       0.037591357 -0.06256109 0.048765652 -0.058398187
000030 8c a2 9e bc b3 fb 89 bc 0f 6b ea 3c e8 2b 10 bd
       -0.019364618 -0.016843652 0.028615503 -0.035198122
000040 fa 73 74 3c dc 01 12 3d 1f f2 0d bd 84 7a 3f bc
       0.014920229 0.035646304 -0.034654733 -0.011686925
000050 1d 88 98 3b df 29 c4 bd a4 82 dd ba d3 01 01 bc
       0.004654898 -0.09578299 -0.0016899896 -0.00787397
000060 60 a2 91 3d b1 bd 51 3b d0 c2 58 bd 85 1a 05 be
       0.07111049 0.0032003934 -0.052920163 -0.12998398
000070 7c 0e df bc a4 58 88 bd e2 3a 87 bd a6 d1 d3 3d
       -0.027228586 -0.06657532 -0.06603028 0.10342722
000080 6c 07 eb bd 2e f4 f3 3c 60 4c 12 3d 91 cf df bb
       -0.11476025 0.02977952 0.035717368 -0.0068301638
000090 6f 83 9f bd e2 aa 01 be 8d d0 17 be 10 9e d1 3c
       -0.07788741 -0.12662843 -0.1482565 0.025588065
0000a0 f3 55 dd bc f5 07 a8 bd 7f 4a 81 3b 78 22 c1 bc
       -0.027018523 -0.08204643 0.003945648 -0.023576006
0000b0 e8 53 a0 bd d4 51 20 be 26 7e 61 ba f7 73 27 bd
       -0.07828504 -0.15656215 -0.00086018664 -0.040882077
0000c0 ff ad 91 bd 73 a0 12 be 6f 98 6e 3b 76 ae d4 3d
       -0.07113265 -0.14319019 0.0036406775 0.10384838
0000d0 f6 69 9f bd 57 44 6b 3d 9c 2d 98 bd 3d d2 86 bd
       -0.07783882 0.05743822 -0.07430574 -0.065830685
0000e0 05 ba 48 bd 09 a5 4c bd 78 8e 71 3d be ac 4e be
       -0.049005527 -0.049962077 0.05897376 -0.20183083
0000f0 ab 09 3f 3d 4e d4 5c be f5 fb 29 be 00 67 01 3d
       0.04664008 -0.21565363 -0.1660002 0.03159237
000100 a1 94 c8 3c b2 d8 94 bd 4a 22 36 bd d6 75 a6 bd
       0.024484934 -0.07267894 -0.044466294 -0.08127944
000110 d9 79 c1 ba 92 78 20 be af 77 0d 3b 70 2e 25 bd
       -0.0014761045 -0.15670994 0.002158623 -0.04032749
000120 6d 0a 22 be eb 44 bf bd 72 b8 b6 bd cd 31 dc bd
       -0.1582429 -0.09339317 -0.08921899 -0.10751686
000130 b8 fe 45 bc 15 03 a6 bd 31 9d 2a 3c ef 44 7b bd
       -0.012084655 -0.081060566 0.010413454 -0.061345037
000140 fd 78 b2 3a d7 11 26 bd a5 70 d2 bc a2 f5 46 bd
       0.001361638 -0.040544357 -0.025688479 -0.048574097
000150 07 56 5c 37 09 b5 d9 3c 3b 89 d2 bd 83 1d e0 bd
       1.3133052e-05 0.026575582 -0.10280081 -0.10943129
000160 c2 d7 96 bd 0f e7 22 3a 3a 5a 8a 3c 69 43 90 bc
       -0.07365371 0.000621424 0.016888727 -0.017610269
000170 a9 0b a1 3a cb 36 64 bc 76 76 82 3b 0a a3 62 bd
       0.00122868 -0.013929079 0.003981407 -0.055331267
000180 6a be 9a bd 39 cf 2d be ad 0e c0 bc 42 3b 60 3c
       -0.0755585 -0.1697358 -0.023444498 0.013686003
000190 e4 45 65 bd 83 76 d7 3c 45 50 c7 3c 7b 56 a0 bc
       -0.055974856 0.026301628 0.024330268 -0.019572487
0001a0 03 ca 87 3d 01 de 83 3b 32 10 59 bd c8 df 82 3d
       0.066303276 0.0040242677 -0.05299396 0.06390339
0001b0 eb 9c 51 ba db bc 0c 3d 61 d8 fc bc 06 d5 41 bd
       -0.00079961 0.034359794 -0.030864896 -0.047322296
0001c0 32 22 2e 3d ad 1e 00 bd bc 51 f8 3b 19 25 ad bd
       0.04251308 -0.031279255 0.007578103 -0.084543414
0001d0 bc be 6b bd 38 c2 35 be 47 de 30 3e 16 9a c7 3d
       -0.057554945 -0.1774987 0.17272292 0.097461864
0001e0 6c 60 1b bd 86 9d 07 bc 2c 7a ca bc 38 cc b8 3d
       -0.037933752 -0.008277303 -0.02471646 0.09023327
0001f0 9f 2a be bd a4 80 bf bd 0e 4f 43 bd 28 29 f0 bd
       -0.09285473 -0.09350708 -0.047682814 -0.117266

lstm.layer_norm1.weight f4 [128]
000000 f4 02 92 3f f6 e2 7f 3f ea 52 7d 3f 29 4e 73 3f
       1.1407151 0.9995569 0.9895464 0.9504114
000010 5f fc 84 3f a2 79 75 3f 20 cc 85 3f f6 2c 7e 3f
       1.0389518 0.9588872 1.0452919 0.99287355
000020 19 03 82 3f bd c7 91 3f 9d e8 79 3f 08 fc 76 3f
       1.0157195 1.138908 0.97620565 0.9647832
000030 d6 6a 84 3f 67 1e 83 3f cd e3 8c 3f 2e d9 83 3f
       1.0345104 1.0243653 1.1007019 1.0300653
000040 a9 39 7c 3f 11 b8 76 3f ba 90 7c 3f dc d3 73 3f
       0.9852548 0.96374613 0.98658335 0.95245147
000050 2f 06 78 3f e5 a1 7d 3f b7 70 83 3f f5 6d 7c 3f
       0.96884435 0.99075156 1.0268773 0.9860528
000060 cf 09 75 3f 32 35 81 3f 16 f7 78 3f 8e fa 7c 3f
       0.9571809 1.0094359 0.97252023 0.98819816
000070 aa b9 72 3f 7a b2 7a 3f 19 8a 76 3f 8d e8 88 3f
       0.9481455 0.97928584 0.9630447 1.0695969
000080 76 dc 77 3f 75 9a 99 3f ed 52 77 3f 25 a1 75 3f
       0.9682077 1.2000262 0.9661091 0.9594901
000090 1c 5b 6c 3f 6a b7 84 3f 75 f1 79 3f e4 17 78 3f
       0.9232652 1.0368474 0.9763406 0.96911454
0000a0 97 3a 84 3f e4 61 79 3f 1b a2 70 3f 3a 59 81 3f
       1.033038 0.97414994 0.93997353 1.0105355
0000b0 e3 49 83 3f 50 8d 8d 3f a2 44 8c 3f 1e 3d 89 3f
       1.0256923 1.105875 1.0958445 1.0721776
0000c0 7f fd 6f 3f 90 71 89 3f e6 b4 78 3f ad 16 77 3f
       0.9374618 1.0737782 0.9715103 0.96518975
0000d0 11 44 7f 3f a9 d7 7f 3f f1 db 7e 3f bc 72 77 3f
       0.99713236 0.99938446 0.99554354 0.96659446
0000e0 3d 2c 77 3f 75 e1 6f 3f 6e 34 83 3f 7f 35 76 3f
       0.9655188 0.93703395 1.0250375 0.9617538
0000f0 53 17 84 3f 14 f7 74 3f 05 e8 75 3f 14 a4 70 3f
       1.0319618 0.9568951 0.9605716 0.94000363
000100 8e a9 78 3f 1a d4 75 3f ed 43 92 3f d1 d0 72 3f
       0.9713372 0.96026766 1.1426979 0.9484988
000110 21 c4 7b 3f e4 3a 77 3f 32 50 97 3f cd 11 7c 3f
       0.98346144 0.96574235 1.1821349 0.9846466
000120 b5 82 72 3f 8e 13 8e 3f 2e 11 85 3f 2e 36 83 3f
       0.94730693 1.1099718 1.0395868 1.0250909
000130 de 5e 75 3f 10 f7 78 3f be 48 80 3f 5f ac 75 3f
       0.9584788 0.9725199 1.0022199 0.9596614
000140 52 25 80 3f 86 a4 75 3f ae 02 83 3f f5 25 70 3f
       1.0011389 0.9595417 1.0235193 0.9380792
000150 33 62 7c 3f 9b d7 82 3f 9c a7 7b 3f ce ef 87 3f
       0.9858734 1.0222048 0.98302627 1.0620058
000160 a5 f2 6b 3f 0f 9d 76 3f 72 e3 84 3f 98 45 84 3f
       0.9216712 0.963334 1.0381911 1.0333738
000170 97 86 7e 3f bf 04 8c 3f 47 de 80 3f f8 2a 7e 3f
       0.9942412 1.0938948 1.0067834 0.99284315
000180 fa 34 81 3f 25 c3 77 3f 3d 5a 7a 3f 3a a7 7d 3f
       1.0094292 0.9678214 0.9779394 0.9908329
000190 30 ef 75 3f 50 f8 90 3f e0 68 7e 3f 50 83 75 3f
       0.96068096 1.1325779 0.99378777 0.9590349
0001a0 2d 9c 81 3f ab 9d 82 3f f0 d5 70 3f 7e 6a 73 3f
       1.0125786 1.0204366 0.9407644 0.9508437
0001b0 88 f3 79 3f 28 e4 75 3f 34 03 6a 3f ac a6 71 3f
       0.97637224 0.96051264 0.9141114 0.94394946
0001c0 50 22 82 3f d4 d8 81 3f 2e b5 76 3f ef 05 8b 3f
       1.0166721 1.0144296 0.9637021 1.0861186
0001d0 db 92 83 3f cb 3b 78 3f 69 29 79 3f 0d e6 7f 3f
       1.0279192 0.96966237 0.9732881 0.99960405
0001e0 ac 4b 7e 3f 52 d7 87 3f 24 89 80 3f 98 28 75 3f
       0.99334216 1.0612586 1.0041852 0.95765066
0001f0 ac 89 73 3f 40 0f 85 3f 61 fc 69 3f 48 aa 8f 3f
       0.95131946 1.0395279 0.91400725 1.1223841

lstm.layer_norm1.bias f4 [128]
000000 ed 82 c8 3c 30 37 a8 bc 1c 3c d4 bc ea 6e 34 bd
       0.024476493 -0.020534128 -0.025907569 -0.04405109
000010 e0 41 56 bd fe 29 0c bb 25 0c 50 bd f1 c8 4a bd
       -0.052308917 -0.0021387334 -0.050792832 -0.04950804
000020 b8 17 76 bd 0e 92 8b bd 65 af d5 3c 35 40 bb bd
       -0.060081214 -0.06814967 0.026084611 -0.09143106
000030 a4 33 e5 bb 9a 45 20 3c 41 07 6b bd a9 b6 78 3d
       -0.0069946814 0.009782219 -0.057379965 0.060721073
000040 89 bb 19 3c 4c 20 14 3d ff eb ae 3d 28 25 21 3c
       0.009383091 0.036163613 0.085411064 0.009835519
000050 1b e7 9d bd b4 23 26 bd 6e f6 cd bd 48 7e 1b bc
       -0.077100955 -0.040561393 -0.10056768 -0.009490557
000060 d7 e6 30 3c 88 47 1d bd 3b 32 21 bd 3f 9b 10 3d
       0.010797224 -0.038398296 -0.039354544 0.035304304
000070 b7 67 6b bb fe ba 69 3d 35 f6 bc 3d da 23 1a bd
       -0.0035919973 0.057063095 0.09226648 -0.037631847
000080 27 ba b3 bc 1d ef 45 bc 87 ad 24 3d 4e b4 ba 3b
       -0.02193935 -0.012080935 0.04020455 0.0056977635
000090 cb 7b 88 3c bd 61 46 bd 38 be cb 3a 23 5b 7c bc
       0.016660592 -0.048433054 0.001554436 -0.015402588
0000a0 7e 19 21 3b 11 4f d1 bb 4a 80 3c 3d c3 da 18 bd
       0.0024581845 -0.0063875993 0.046020783 -0.037318002
0000b0 33 8b 27 3c 16 19 cb 3c 2d fb 19 bd f6 3d 54 bc
       0.010226059 0.024792235 -0.037593056 -0.012954226
0000c0 26 5f aa ba ca 0f 70 3d 4b 9a b0 3c 49 22 9d bd
       -0.0012998327 0.058608808 0.021557948 -0.07672555
0000d0 c0 7f ed 3a 0c 9d 0a bc a5 7a 85 3b 46 ac 48 bc
       0.0018119738 -0.008460294 0.0040734583 -0.012248104
0000e0 9d 16 b5 3d 23 7f 91 3c d9 46 8e bd cc 5f 70 3d
       0.08842204 0.017760819 -0.06947107 0.05868511
0000f0 90 3b 62 bc 30 6f 74 bc ce b8 62 3d 4f 85 12 bd
       -0.013808146 -0.014919087 0.055352025 -0.035771664
000100 f4 6c e9 bb 31 27 92 3c 06 98 47 3d 6b e0 17 bd
       -0.007123584 0.017840954 0.048728965 -0.037079256
000110 4b 6b 9e bd e2 71 09 bd dd 2f 65 bd 98 be 6e 3b
       -0.07735308 -0.033555873 -0.05595385 0.003642952
000120 68 f3 d3 3d 06 35 91 3d 38 6d 94 bb 78 fe 33 3d
       0.103491604 0.070901915 -0.0045296215 0.043943852
000130 4f 64 9a ba 3a 8b 8e bc 00 ad 8a 3d bb 5a c2 bd
       -0.0011779162 -0.017400373 0.067712784 -0.09489962
000140 48 54 bb bc 59 98 b4 3d 35 e5 00 bb b1 eb 70 bd
       -0.022867337 0.088181205 -0.0019667868 -0.058818523
000150 d4 16 b5 3d 83 da c0 3d 80 b5 9c 3d 1f fb ea bd
       0.08842245 0.09416678 0.07651806 -0.11473679
000160 83 6c e7 bd 08 1e 95 bc bd 14 6f bc ad a5 97 3b
       -0.11299994 -0.018202797 -0.014592347 0.0046279044
000170 a1 4c 8f 3c 92 23 cb 3d 33 c5 b5 bd 0b 3e 5b bd
       0.017492594 0.09918894 -0.088755034 -0.053525966
000180 9d 7e 9b bd 67 1d 20 3d 4e 38 98 bd 08 3d 30 3d
       -0.07592509 0.03909054 -0.07432614 0.043026954
000190 92 d0 c5 3d 73 99 4c 3d 83 18 bd bd 3a d1 6a 3d
       0.09658922 0.049951028 -0.09233191 0.05732844
0001a0 7b 3e aa bb 25 a4 f6 bd a4 04 0f 3d c0 c1 30 3d
       -0.0051954365 -0.12043027 0.034916535 0.043153524
0001b0 3b 86 26 bc 1b 4e 0b bd 5f eb ed 3b c2 52 e2 3b
       -0.010163839 -0.034010034 0.0072607244 0.006906838
0001c0 8a d6 10 bd b3 af 43 3d 6b 44 e6 bc 8a 07 bb b9
       -0.03536085 0.04777498 -0.028108796 -0.00035673036
0001d0 4c f3 35 bd 82 1c e2 bd c7 6a c9 3c 3f 62 34 3d
       -0.04442148 -0.11040594 0.024587048 0.044039007
0001e0 0b 20 70 bc 78 d6 a1 bc 35 da 44 bc da ac a0 3d
       -0.014656077 -0.019755587 -0.012014915 0.07845469
0001f0 ed e7 d9 3d 7b be 7b 3d 4d cc d9 3d 45 8b 35 3c
       0.106399395 0.061460953 0.106346704 0.011080568

lstm.layer_norm2.weight f4 [128]
000000 3b 0e aa 3f 75 43 9d 3f bb 36 96 3f 6c 9c 9b 3f
       1.3285593 1.2286211 1.1735452 1.2157111
000010 fd 74 9a 3f 26 b5 9a 3f 3e 67 9b 3f f1 f7 9c 3f
       1.2066952 1.2086532 1.2140882 1.2263166
000020 35 f5 9e 3f 17 fd a9 3f 8d 40 a9 3f 9b 2a 99 3f
       1.2418581 1.3280362 1.3222824 1.1966127
000030 a6 f5 a1 3f 00 15 a1 3f e7 81 a2 3f 32 83 ae 3f
       1.2653091 1.2584534 1.2695893 1.3633788
000040 33 5f a1 3f af 14 93 3f 33 3d 97 3f f3 86 9a 3f
       1.2607177 1.1490687 1.1815552 1.2072433
000050 9a 4d 92 3f d3 99 99 3f 66 e2 9f 3f 96 48 96 3f
       1.1429932 1.2000068 1.2490966 1.1740901
000060 12 75 9c 3f cc 2d 9f 3f 41 d5 9f 3f 4c fb 9b 3f
       1.2223227 1.2435851 1.2486955 1.2186065
000070 7f 22 9a 3f f7 97 a4 3f db 99 96 3f ea 89 a5 3f
       1.2041777 1.2858876 1.1765703 1.2932713
000080 69 1e 96 3f 94 40 b4 3f 6d 88 93 3f 26 cc 92 3f
       1.172803 1.4082208 1.1526009 1.1468551
000090 31 5b 91 3f d7 bc 94 3f b8 ba 97 3f 8d aa 98 3f
       1.1355954 1.1620129 1.1853857 1.1927048
0000a0 79 fa a8 3f 45 15 97 3f a5 bd 9e 3f a9 44 a1 3f
       1.3201438 1.1803366 1.2401625 1.2599078
0000b0 95 79 9d 3f c9 7e a6 3f 9a 62 a4 3f 91 ee a3 3f
       1.2302729 1.3007442 1.2842591 1.280718
0000c0 80 ea 93 3f 8b c0 aa 3f 81 83 96 3f 9b f2 97 3f
       1.1555939 1.334001 1.1758882 1.1870912
0000d0 84 13 98 3f 24 a2 a0 3f 15 f0 93 3f 98 ed a3 3f
       1.1880956 1.2549481 1.1557642 1.2806883
0000e0 d8 87 a8 3f e9 42 90 3f 86 54 94 3f 0a 59 96 3f
       1.3166456 1.1270419 1.1588295 1.1745923
0000f0 90 2f 9c 3f 13 dd 92 3f 52 76 9f 3f 9a e6 98 3f
       1.2202015 1.1473716 1.2457983 1.1945374
000100 e7 63 9b 3f 81 98 89 3f 2b ca ab 3f 9b 9d 97 3f
       1.2139863 1.0749665 1.3421072 1.1844972
000110 49 fa 94 3f 68 4a 94 3f 81 e2 ad 3f 89 14 9d 3f
       1.1638881 1.1585207 1.3584749 1.2271892
000120 f2 b9 96 3f 4d 7d aa 3f fa 12 a0 3f d4 f4 a5 3f
       1.1775496 1.3319489 1.2505791 1.2965341
000130 ed 41 9d 3f cc 97 95 3f 01 2f 99 3f 4e 3d 95 3f
       1.2285744 1.168695 1.196747 1.1659334
000140 ed d2 9d 3f e2 79 95 3f fe fc ae 3f 12 db a2 3f
       1.2329994 1.1677821 1.3670957 1.2723105
000150 bc b7 9c 3f 41 93 96 3f 5b 9e 9f 3f 4f 6e a2 3f
       1.2243571 1.1763688 1.2470201 1.2689914
000160 d7 26 8f 3f 8f 37 a4 3f a1 de ad 3f c7 41 a9 3f
       1.1183728 1.2829455 1.3583566 1.3223199
000170 40 95 9b 3f 8c 03 ad 3f bf 7a 95 3f a6 80 a1 3f
       1.2154922 1.3516707 1.1678084 1.2617385
000180 53 03 a2 3f 5f 70 96 3f 21 59 91 3f fe 88 a3 3f
       1.2657264 1.1753043 1.1355325 1.2776182
000190 cd 29 9d 3f 3e cd ac 3f ec 10 9d 3f 1a b1 96 3f
       1.2278382 1.3500135 1.2270789 1.1772797
0001a0 af 7e a9 3f 31 2a a4 3f 22 29 9a 3f 99 c1 98 3f
       1.3241786 1.2825376 1.2043803 1.1934081
0001b0 26 0a 9c 3f e9 34 99 3f b9 2b 94 3f da e4 91 3f
       1.2190597 1.1969272 1.1575843 1.1397965
0001c0 00 31 9c 3f 93 99 a0 3f 0a f9 96 3f bf 01 a1 3f
       1.2202454 1.2546867 1.1794751 1.2578658
0001d0 29 99 9d 3f ef a1 92 3f 47 e7 9d 3f 5d 9c 9a 3f
       1.2312366 1.1455668 1.2336205 1.2078968
0001e0 e2 db a5 3f 42 24 a2 3f 43 b1 a4 3f d2 d9 93 3f
       1.2957728 1.2667315 1.2866596 1.1550848
0001f0 2a d1 94 3f 34 a7 9d 3f 3d 9e 9e 3f 75 c8 ae 3f
       1.1626332 1.2316651 1.239204 1.3654925

lstm.layer_norm2.bias f4 [128]
000000 3a cd 0d bc c5 ad 56 3e 46 91 c8 bd b2 3b 6a 3d
       -0.008654887 0.20964725 -0.09793334 0.057185836
000010 f6 b5 1e 3d 82 fe 9f 3c 40 0a 9d 3d d2 9c 47 3d
       0.03874775 0.019530538 0.07667971 0.04873354
000020 ae 46 c1 3d fc 0a e1 bd 2a f8 ce 3d 30 94 bd 3d
       0.09437309 -0.10988423 0.10105927 0.0925678
000030 c7 b3 05 be 11 54 4f bd 0a 0c b4 b9 49 42 50 bd
       -0.13056861 -0.05061728 -0.00034341245 -0.050844464
000040 33 48 82 3d 88 f3 f6 bd b8 fe 2a bd 42 80 aa 3d
       0.06361427 -0.12058169 -0.041746825 0.083252445
000050 2a a4 9a bc 21 cf fd 3d 38 08 90 3c 5d 31 38 be
       -0.018877108 0.12393022 0.017582044 -0.1798758
000060 db 13 9b bd 57 c6 5c be 9c f5 b7 3c c6 a7 15 3e
       -0.075721465 -0.21560036 0.022455983 0.14614782
000070 ac 2b 48 be 5d 30 30 be f0 46 d8 bd c2 9c eb 3d
       -0.1954791 -0.17205949 -0.10560405 0.115045086
000080 5e e0 ab 3c d1 ca a8 bd dd 58 0b be 75 70 c5 bd
       0.02098101 -0.08241809 -0.13608117 -0.0964059
000090 ab af 11 be b1 b8 7c bd b2 63 85 3d 1c 18 39 3e
       -0.14227168 -0.061699573 0.06513156 0.18075603
0000a0 73 88 f2 bd b3 78 1d 3e ee fb 23 be 8f 9e 23 3e
       -0.11842432 0.15378074 -0.16014072 0.15978454
0000b0 5d 62 a5 bd ad dc 0c 39 09 c9 8b 3d 61 0d 80 3d
       -0.08075402 0.00013433649 0.06825454 0.06252552
0000c0 cf b3 0f be 11 3f 71 3d db fb e3 bd 83 99 2a 3e
       -0.14033435 0.058898035 -0.11132022 0.16660123
0000d0 00 44 01 3e e5 35 43 3e 18 56 02 3d 27 fd 07 be
       0.12623596 0.19063528 0.031820387 -0.13280164
0000e0 21 eb 3d be 76 bc b1 3b 31 c3 ec 3b 13 51 0a be
       -0.18546726 0.0054240776 0.007225417 -0.1350749
0000f0 80 fc ef 3c b3 8d 6e 3c 72 57 ac bd 88 08 db 3d
       0.029295206 0.014560151 -0.08415116 0.106949866
000100 ef c2 e6 3d 9a cc 0e bd c3 4f 14 3e 74 fd ef 3d
       0.112676494 -0.034863092 0.14483552 0.11718264
000110 10 18 99 3d b7 f5 24 3e 85 83 79 bd 8f 6b 4a be
       0.07475293 0.16109358 -0.060916442 -0.19767593
000120 2e 0f 61 3e dc 35 83 bc ef 55 8d 3d f8 1c a9 3d
       0.21978447 -0.016016893 0.06901156 0.082574785
000130 2d fd d4 bd 95 5a 02 3e 9e d3 17 bc 26 d7 c3 3c
       -0.10399852 0.12729867 -0.009266762 0.023906302
000140 94 c9 29 3e 2a ac 79 bc b5 b7 2c 3d dc 5c 7c be
       0.16580802 -0.015238801 0.042167384 -0.24644798
000150 7d 6e fd bd 15 5e 09 3c e1 fd 03 be 3a 3c 56 bb
       -0.123745896 0.008384247 -0.12889816 -0.0032689706
000160 aa 71 f4 39 0a 15 19 be df b3 4e 3d 99 6b 37 be
       0.00046623993 -0.14949432 0.050464507 -0.17912139
000170 5f 5e f3 3d 22 0b 36 bc 6f e2 59 bd 60 6e ff 3d
       0.11883234 -0.011111053 -0.05319446 0.12472224
000180 04 60 ad 3c 71 17 01 be 7b 1a a0 bb b6 96 d8 bd
       0.021163948 -0.12606598 -0.004885969 -0.10575621
000190 86 f0 87 bd 3c 48 95 3d 72 a6 9d 3d 2d 4b 37 3d
       -0.06637673 0.07289168 0.076977625 0.044749428
0001a0 bb 62 81 3e 39 e9 01 3d e8 40 94 bc 88 f6 1b be
       0.25270638 0.03171656 -0.018097356 -0.15230763
0001b0 6b 8d 3a 3d d6 6f a5 3d b9 fd 3e 3d a7 0f c3 3d
       0.045545023 0.08077972 0.046628688 0.0952447
0001c0 37 14 b2 bd 60 e6 0e be 54 33 92 3c 38 98 05 be
       -0.08695262 -0.13955069 0.01784674 -0.13046348
0001d0 0a 54 dc bd 50 b3 1a bd de 63 73 be e4 61 5a bd
       -0.10758217 -0.037768662 -0.23768565 -0.053316012
0001e0 5c 29 cf 3b a9 8d c3 bd b8 5a fa bd 05 9f 2d bd
       0.006322069 -0.09548504 -0.122243345 -0.04238798
0001f0 ba 61 e9 bd c8 38 02 bd 19 f8 19 be 17 d5 f2 bc
       -0.11395593 -0.031792432 -0.15036048 -0.029642625

fc1.weight f4 [64, 128]
000000 23 6f a3 bd 40 e6 8b 3d 06 5a ba bd 41 0c f6 3b
       -0.07980182 0.06831026 -0.09099202 0.007508785
000010 fc 96 c9 3d 6c 5d cc 3d fe 49 90 3d 4b 7e 8a bc
       0.09843251 0.09978756 0.07045363 -0.016905924
000020 44 36 30 3e 73 d1 0e 3e 1b 34 5f be 09 d3 10 3d
       0.172082 0.13947086 -0.2179722 0.03535751
000030 17 80 e9 bd fe 7e 07 be 8f d6 dd 3d 2a e9 ad bd
       -0.11401384 -0.13232037 0.108319394 -0.08491738
000040 4b 4c f1 3c 55 03 89 3c 8f c2 00 be 77 cc ac bc
       0.029455325 0.016725222 -0.12574218 -0.02109359
000050 7c f1 d3 3c 1f 5f 99 bd 86 21 55 bb a8 f7 10 3c
       0.025871985 -0.07488846 -0.0032521202 0.008848108
000060 c8 20 eb 3d 78 b1 1e bd 08 80 75 bd f4 87 5f bd
       0.11480862 -0.038743466 -0.059936553 -0.054573014
000070 d3 e1 a0 bc db 48 03 be bb 34 d0 bd 9f 35 33 3e
       -0.019638931 -0.12820761 -0.101663075 0.17500924
000080 82 94 96 bc ef 1f 62 bd 37 1f e3 bd 15 00 8e 38
       -0.01838136 -0.055206235 -0.11089938 6.771103e-05
000090 d3 dd 8d bc 33 cf e2 3d 1b 07 c5 3d 95 e7 85 3d
       -0.017317688 0.11074676 0.09620496 0.065383114
0000a0 66 75 39 be 8b 06 4b 3c 25 51 8b bd d5 d1 0a 3e
       -0.1811119 0.012391697 -0.068025865 0.13556607
0000b0 70 3e a7 3d f3 9a d0 3d 34 aa 8e bd ef 4f fd 3b
       0.08166206 0.10185804 -0.069660574 0.007730476
0000c0 01 29 6f bd 06 11 d5 3d fd 10 3b 3d fb 5d ae 39
       -0.058388714 0.104036376 0.0456705 0.00033257887
0000d0 cc ac 92 3d b5 25 02 3e 7c e3 a3 3d 96 5f f1 bd
       0.07161865 0.12709697 0.080023736 -0.1178581
0000e0 c9 ed 84 bd 33 3a 10 bd 3f 30 bd 3d 3e 97 8b bd
       -0.064906664 -0.035211753 0.09237718 -0.068159565
0000f0 05 cd 2b 3e 2d 69 0f be db 77 b5 bc d4 16 37 3d
       0.16777427 -0.14004965 -0.022151878 0.044699505
000100 cd 67 8e 3d db 57 ca 3d 89 06 97 3d a0 6c 1b 3e
       0.06953392 0.09880038 0.07374293 0.15178156
000110 87 72 05 3e 76 5e 93 3d 16 66 9a 3d b5 9d a2 bd
       0.1303197 0.07195751 0.075390026 -0.079402365
000120 d5 f4 f4 3d 77 18 72 bc fd 4d 91 bc 12 40 3d bc
       0.119607605 -0.014776341 -0.017737383 -0.01155092
000130 f3 e1 3e bd 91 c3 bc 3b 3c c4 07 bd b3 8d 2f 3d
       -0.0466022 0.005760618 -0.033146128 0.042859744
000140 7c 3c b4 3d 7f ef 36 3d 2d 73 1f 3c f6 86 a6 bd
       0.08800599 0.044661995 0.00973205 -0.081312105
000150 42 be af bd 70 bd ea 3c 5d 05 a5 bd 4f 07 99 bd
       -0.08581211 0.028654784 -0.080576636 -0.07472097
000160 a9 74 05 3e c5 e7 06 be 4b cb 2b 3d cd d7 69 bd
       0.13032784 -0.1317435 0.041941922 -0.05709057
000170 27 9b 2d 3d 61 13 cb bc 68 58 b3 3c 51 2d 69 3c
       0.042384293 -0.024789514 0.021892741 0.014231996
000180 62 db 14 3e cd 7e c2 bc eb 71 b7 bc 6b 8c dd 3b
       0.14536813 -0.023742104 -0.022393188 0.006761124
000190 7b ca ae bd 87 4f fd 3d b9 e6 07 3e 98 c7 1c 3c
       -0.08534714 0.12368684 0.13271607 0.009569071
0001a0 5c 88 8c 3b 47 ea f1 bc c2 8c b6 bc a8 14 ac bd
       0.0042887162 -0.029530657 -0.022283915 -0.08402377
0001b0 08 7c e2 bc 54 09 b5 3d 67 fa 69 3d 51 ea 2f bd
       -0.027647033 0.0883967 0.057123568 -0.04294807
0001c0 40 a9 e0 bc fc 7f f1 bc d9 65 57 3d 6b c2 9f bd
       -0.027424455 -0.029479973 0.052587364 -0.07800754
0001d0 7a dd cf bc 4e 45 b5 3d 2a 69 14 bc 36 05 91 3c
       -0.025374163 0.088511094 -0.009058276 0.01770268
0001e0 c8 5f bc bc 86 b3 14 3d 64 7f d5 3d fd cf 35 3d
       -0.02299489 0.03630402 0.104246885 0.044387806
0001f0 26 25 8a bd 72 fb 2c 3d 39 db d1 bd 85 08 9e ba
       -0.06745367 0.042231984 -0.102468915 -0.0012056982
000200 70 19 09 be 5f 09 0a 3e 78 61 ee bd bc 67 29 3c
       -0.1338861 0.13480137 -0.116396844 0.010339674
000210 f1 dc 82 bd cc db a9 3d 3d 1c df bc d4 bc 5a 3d
       -0.063897975 0.08293876 -0.027235145 0.053402737
000220 66 f5 5c bd 98 0d 22 be 43 13 3e be c6 37 9b bc
       -0.053944968 -0.15825498 -0.18562035 -0.018947493
000230 da a2 85 3b 80 39 ce 3d 00 05 88 3b a8 a8 4d bd
       0.0040782513 0.10069561 0.0041509867 -0.05020967
000240 05 e9 b8 3d 5d 85 2e bc a2 86 ac bc 5c ff 9b 3d
       0.0902882 -0.0106519135 -0.021060292 0.07617065
000250 ce d1 6a 3c f3 f6 2f 3c 32 a5 1d 3d 3b 62 0a 3d
       0.014332248 0.01074003 0.03848762 0.033785086
000260 a8 79 a6 3d 25 cb a4 bd f3 b5 8b bb 49 53 de bc
       0.08128673 -0.08046559 -0.0042636334 -0.027139323
000270 ca fd 12 bd 49 03 eb bd 26 0c 06 be ef 40 1e 3e
       -0.035886563 -0.11475236 -0.13090572 0.15454458
000280 2b b2 59 3d 03 c6 fb bd 27 52 cb bd d2 5f 69 3c
       0.05314843 -0.12293627 -0.09927779 0.014244037
000290 94 c7 f7 bd f8 39 5c 3d d4 f6 cb 3d 96 cd 13 3e
       -0.120986134 0.05376622 0.09959188 0.14433894
0002a0 8f f1 a2 be 87 5f 9b 3d eb d2 c2 3c a3 b9 53 3d
       -0.3182492 0.0758658 0.023782214 0.05169071
0002b0 fa 55 91 bd 46 7a c6 bd b7 28 71 3d bb 07 a6 3d
       -0.07096477 -0.096912906 0.05887672 0.08106943
0002c0 c4 49 63 3c 8e e6 b6 bd 0e 0f e7 bd c5 e4 0c 3e
       0.013872568 -0.089306936 -0.11282168 0.13759144
0002d0 74 38 4b 3d e8 a9 f9 3d b5 65 f9 3b dd 39 a5 bd
       0.049614385 0.1219061 0.0076110014 -0.08067677
0002e0 22 72 10 be fd 75 a2 bd 62 bb ac bd 11 62 b8 3c
       -0.14106038 -0.07932661 -0.08434178 0.0225077
0002f0 14 81 f4 3c 70 33 b5 3d 19 e0 35 be d3 1d 9f 3d
       0.029846705 0.088477015 -0.17761268 0.077693604
000300 86 10 32 bd b0 a5 00 bd 62 72 3f 3e 41 78 86 3d
       -0.04347279 -0.031408012 0.18695977 0.06565905
000310 24 ae 5a bd 8e 38 19 3e 95 68 11 3d bd 9f e0 bd
       -0.05338873 0.1496298 0.035500128 -0.10967968
000320 5e f8 21 bc 71 4b 26 3e 2b b9 ec 3c af ba 4d 3e
       -0.0098858755 0.16239716 0.028896889 0.20090745
000330 c0 55 2e be a8 e1 a5 bd a1 d3 b6 bd 95 94 94 3d
       -0.17024899 -0.08099681 -0.08927084 0.07254902
000340 65 b8 15 3e 4e 74 1a bc d7 48 9f 3d df 29 77 bd
       0.14621122 -0.009427143 0.07777565 -0.060342666
000350 67 4e 45 bd 93 75 15 ba 00 0a c3 bc 0f 01 2e 3e
       -0.048170473 -0.0005701419 -0.02380848 0.16992591
000360 67 b1 0a 3c 83 11 65 be 88 61 a6 3c 34 30 b2 bd
       0.008465148 -0.22369961 0.020310178 -0.087006
000370 1e 31 39 3e a8 ab f3 bc 4b 0f 76 bd 8f c6 60 3e
       0.18085143 -0.029744938 -0.06007318 0.21950744
000380 93 e4 08 bd 41 12 ee bd da 87 97 bd 8c 22 67 3d
       -0.03342111 -0.116245754 -0.073989585 0.05642943
000390 ff 61 95 bc f3 64 8d 3e cd 41 87 3c 7f db c3 3d
       -0.018235205 0.2761608 0.016510868 0.0956335
0003a0 d7 e7 0f 3e 0e 2a 51 3d 48 fd e8 bb 4f 80 a1 3c
       0.14053284 0.051065497 -0.0071102716 0.019714503
0003b0 80 d5 c4 bd c8 71 36 3d cf d0 fc 3d 70 01 1c 3e
       -0.096110344 0.044542104 0.123445146 0.15234923
0003c0 c0 70 f5 3d 25 18 be 3d a3 51 9c 3c 34 5c 77 be
       0.11984396 0.09281949 0.019081896 -0.24156266
0003d0 77 03 32 bd 15 42 96 3d d0 9b 2c bd 4e 0d 3b 3c
       -0.043460336 0.07336823 -0.042140782 0.011416746
0003e0 f9 25 98 3d 97 7d 9d bd 6a 04 0a be 4a e3 de 3b
       0.07429118 -0.0768997 -0.13478246 0.0068019973
0003f0 ab f6 cc bb a6 11 58 bd 4d c0 39 bd e8 30 27 3c
       -0.006254991 -0.052751206 -0.045349408 0.010204531

fc1.bias f4 [64]
000000 2c ed c1 3c 4b f5 cc 3d c7 fd 1e 3d 5b 6a 0c 3e
       0.023672663 0.100077234 0.03881624 0.13712446
000010 09 93 bb 3d 80 80 0f 3e 7f 01 0f bd 5a 98 9e 3c
       0.09158904 0.14013863 -0.034913536 0.019359756
000020 8f bc 06 3e 3b 39 91 3d dd 51 01 3d 8c 7d 0e 3e
       0.13157867 0.07090994 0.03157221 0.1391508
000030 03 2e 56 3d 96 47 70 bd c8 99 87 3d 8c 9d d1 3c
       0.052289974 -0.05866202 0.06621128 0.02558782
000040 b7 b9 2d 3e 2c 8a d6 3d 24 c6 87 bd be 8f 3f 3d
       0.16965376 0.10475573 -0.06629589 0.046767943
000050 d4 58 0b 3e d4 d2 b3 3d 2b c1 12 3e b1 a0 87 3d
       0.13608104 0.08780447 0.143315 0.06622446
000060 9f 2b 8c 3d 4d e4 c0 3d 37 90 a7 3d 17 8b d6 3d
       0.068442576 0.09418545 0.08181804 0.10475748
000070 41 fa 57 3d 21 30 c5 3d 4d 40 1c 3d b8 95 84 3c
       0.052728895 0.096283205 0.03814726 0.016184673
000080 dc 73 49 bc ed 03 76 3d 3b c0 e8 3d e9 fd 87 3d
       -0.012295689 0.060062338 0.1136479 0.066402264
000090 58 4d 32 3d 78 8b 82 3d 65 d1 db 3d c4 27 16 3e
       0.043530792 0.06374258 0.10733298 0.14663607
0000a0 d6 18 ce 3c 66 d4 06 3d e1 a9 35 3c 74 ad 57 3d
       0.025158327 0.032917403 0.011087866 0.052655652
0000b0 a1 42 1a 3e 64 b8 e3 3d 5d a7 38 bd 16 b6 fb 3d
       0.1506448 0.11119154 -0.045081485 0.122905895
0000c0 40 1b 16 3e 8a 4d dc 3d 52 07 09 3e 93 28 3c 3d
       0.14658833 0.10756977 0.13381699 0.045937132
0000d0 5b 59 e9 3c 49 56 6c bc e3 ad 0f 3e 20 61 5e 3b
       0.02848499 -0.014424869 0.14031176 0.0033932403
0000e0 50 8b 0d 3d 59 88 34 3e 78 a0 83 3d 22 78 0b 3d
       0.034556687 0.17630138 0.06427091 0.034050114
0000f0 c5 96 28 3d e7 51 b3 3d ac 42 dc 3d 74 9e 24 bc
       0.04115941 0.08755856 0.10754904 -0.010047544

fc2.weight f4 [14, 64]
000000 ab a1 54 3d f4 3a 73 be 48 4b 25 be ed 27 7d be
       0.05191199 -0.23752958 -0.16141999 -0.24722262
000010 85 e8 2f 3e 9d d3 01 3c 56 d1 9d bc 2a 62 1f 3e
       0.17178543 0.007923988 -0.019264858 0.1556479
000020 b7 58 e7 bd b6 b3 96 bb 60 68 7c be 5f ef 1a bd
       -0.11296218 -0.00459906 -0.24649191 -0.03782594
000030 7c 58 78 be 0c 39 41 be 8d ca bd bd f0 02 3a be
       -0.24252504 -0.18869418 -0.09267149 -0.18165183
000040 1d 14 8d be 48 c5 56 3d d5 0a 8b bc 46 50 03 3c
       -0.27554408 0.052434236 -0.016972939 0.008014744
000050 48 3c 22 be 08 9d 21 3d 71 3f 36 3c 46 d4 a9 be
       -0.15843308 0.039456397 0.011123524 -0.33169764
000060 08 5c 14 3e 61 8e f2 3b a0 72 ee 3d 37 00 81 3e
       0.14488232 0.007402227 0.11642957 0.25195476
000070 38 68 3b be 1a fa fb bd 09 37 97 be dc 93 4c 3e
       -0.18301475 -0.123035625 -0.29534176 0.19978279
000080 c8 7b 99 bc 20 22 e3 3d 75 c6 8c bd cc e7 31 3e
       -0.018735781 0.11090493 -0.0687379 0.1737358
000090 0b f5 26 be 3f 06 a6 be f2 ac c1 3c 54 31 e8 bd
       -0.16304414 -0.3242664 0.023642037 -0.113375336
0000a0 20 d8 76 3e 4f b4 40 3d b8 d6 1c be 52 29 47 bd
       0.24105883 0.047046956 -0.15316284 -0.04862339
0000b0 2b 84 88 be 4e 78 af 3c d9 20 21 be 8c e9 06 be
       -0.26663336 0.02141967 -0.15735187 -0.13175029
0000c0 98 c0 6e 3e a7 76 92 3d 91 af 03 be cb 65 9a be
       0.23315656 0.071515374 -0.12859942 -0.30155787
0000d0 e3 6a aa be 94 88 c2 bd 86 bf 2a 3e 94 51 4f 3d
       -0.33284673 -0.094987065 0.16674623 0.05061491
0000e0 f4 7f 08 3e 84 71 9a be 70 72 0a 3e 9a ed 04 3d
       0.1333006 -0.3016473 0.13520217 0.032453157
0000f0 e2 fe 1d bc 03 ec 56 be 78 44 91 be a0 d9 2c bd
       -0.009643288 -0.20988469 -0.2837255 -0.04219973
000100 34 98 89 3d 66 e8 da 3d 96 4b ae be d5 bf 85 3d
       0.067184836 0.10688858 -0.34042042 0.0653073
000110 f8 7b 1e be 3c f2 44 be 6b 56 aa 3d de f3 ad be
       -0.15476978 -0.1923303 0.08317264 -0.33975118
000120 b6 ed 3b bd d9 2d a4 3d d4 28 f7 3d 54 fa 42 3e
       -0.045880996 0.08016557 0.12068334 0.19040805
000130 00 7e 23 3e de 59 3e 3d 46 99 68 be e9 21 66 be
       0.15966034 0.046472423 -0.22714719 -0.22473873
000140 cf 48 f4 3d e5 5a 35 3e 22 0c f3 bd e1 93 10 3c
       0.1192795 0.17710455 -0.118675485 0.00882432
000150 63 84 2b 3e 2d 9f 8e be 0b 03 b8 3d fd 2e 9f be
       0.1674972 -0.27855816 0.089849554 -0.31090537
000160 04 d3 88 bc 14 ea 1c bd 11 b8 4e bd 78 a0 c4 bd
       -0.016702183 -0.03830917 -0.05046851 -0.096009195
000170 d5 24 f3 3d 75 39 56 be d9 09 67 3d a1 29 14 be
       0.118722595 -0.20920356 0.056405876 -0.14469005
000180 65 4e 71 3d 9e 45 74 be 7b ea 09 3e 79 eb 9b be
       0.058912653 -0.23854682 0.13468353 -0.3045309
000190 85 68 7a 3d db fb 8b 3d d8 dd c4 3d 3b d4 0f 3e
       0.061134834 0.06835147 0.09612626 0.14045803
0001a0 ad e5 88 be 16 a7 68 be c6 7c 7a bd b6 0f 52 be
       -0.2673773 -0.22719988 -0.06115415 -0.20513806
0001b0 c3 be 5f be 77 05 86 be d4 e2 d0 3a a0 52 a6 bd
       -0.21850114 -0.26176044 0.0015936741 -0.08121228
0001c0 92 80 1b bd ec 9b ae be e0 9a c4 3d 38 9b da bd
       -0.03796441 -0.34103334 0.095998526 -0.10674137
0001d0 04 a3 b4 3c 1c b7 17 3d aa e4 47 be 6d 66 b9 3d
       0.022050388 0.03703986 -0.19520822 0.09052739
0001e0 2a 43 f6 3c d1 52 35 be 6a 50 ac bc bd 30 85 be
       0.030061323 -0.17707373 -0.021034438 -0.26013747
0001f0 8d 83 8d 3d 87 5b 3a 3e 5b 8a bd 3c 7d fe 4e bc
       0.06909857 0.18198977 0.023137262 -0.012633917
000200 ec fb fe 3c 08 f2 27 be 89 0b 04 be d6 9b 45 be
       0.031125985 -0.16400921 -0.12895025 -0.19297728
000210 98 02 59 3e 7b c9 99 bd 4f 1c 6f bd 17 8c 55 3e
       0.21192396 -0.075091325 -0.058376607 0.20854221
000220 5d f2 4b 3e ce 90 6c be 50 e2 ea 3c c4 2a 7b be
       0.19916673 -0.23102114 0.028672367 -0.24528033
000230 77 ec 24 be 33 d9 3f be fa 09 45 3e 48 e1 c9 bd
       -0.16105829 -0.18735199 0.19242087 -0.09857422
000240 c6 11 22 be 65 ad 80 bd 66 c4 e5 3c 62 9a 1f 3d
       -0.15827093 -0.062830724 0.028047752 0.03896559
000250 d9 3f f9 3d d7 ea d3 3d b8 8b 06 be 71 19 62 be
       0.12170381 0.103475265 -0.13139236 -0.22080018
000260 6a 36 1b 3e 4b 8a 03 3e 1c 1c e8 3d 18 9d bd bd
       0.15157476 0.12845723 0.113334864 -0.09258479
000270 ae 2b 20 3e 82 63 4f 3c 47 af f7 3d 01 f0 00 be
       0.15641662 0.012658002 0.120939784 -0.12591554
000280 92 34 d1 3d ed f8 00 3e 39 ce 05 3d 6c 1b 18 be
       0.10215105 0.12594958 0.032667372 -0.1485421
000290 72 d5 96 be d2 d0 b9 bc 23 3b c0 bc 42 14 35 be
       -0.2945972 -0.022682581 -0.023465699 -0.17683509
0002a0 a7 2a 49 be 99 7f 17 3d af 1b 3f 3e d1 c3 5d 3e
       -0.19645177 0.03698692 0.18662904 0.2165673
0002b0 b8 2e 65 bc de b9 0e 3c cb 27 3b 3d 83 5c a6 3d
       -0.013988189 0.008711306 0.045692246 0.08123114
0002c0 28 2a 56 3d eb af b0 3d 06 18 02 bc 50 7d 3b be
       0.052286297 0.08627304 -0.007940298 -0.18309522
0002d0 b4 87 90 bd 8e 2c 87 3d 43 ad c8 3c 86 f2 81 be
       -0.07057133 0.06600295 0.02449668 -0.25380343
0002e0 e9 b5 1a be f8 ce 9d 3d 7a 60 0d 3c 87 1c 2f bd
       -0.15108456 0.07705492 0.008628959 -0.042751815
0002f0 7f 21 40 3a c0 4e 38 be 6d 43 b2 3d db 27 02 3d
       0.000732921 -0.1799879 0.08704267 0.03177629
000300 e7 23 62 3c e1 00 00 3e 62 fe 1b be 95 2b 0f 3e
       0.013802505 0.12500335 -0.15233758 0.13981469
000310 14 9f aa bd ad 73 5d be 1d 3b 20 be e7 cc 1e bd
       -0.08331123 -0.21626158 -0.1564755 -0.03876963
000320 eb 8b 97 bd 15 a0 bd be 7b 15 a5 bd e6 13 01 be
       -0.07399734 -0.37036195 -0.08060738 -0.12605247
000330 50 aa c0 bd 4b f8 43 3d fb c0 ac bd 53 9a 26 3e
       -0.094074845 0.047844213 -0.084352456 0.16269808
000340 2f 5c f4 bd 9e fa c0 3c 80 53 ab bd e6 c8 34 3e
       -0.11931645 0.023557004 -0.08365536 0.17654762
000350 82 7f 17 3e 1b 6a 2b 3e f0 86 44 3d 03 3d da 3c
       0.14794734 0.16739695 0.04798025 0.02664042
000360 ef fc 9a 3d ff 23 35 3d b2 b0 a1 bb 9c 7c 12 3d
       0.075677745 0.04422378 -0.004934394 0.035763368
000370 32 ad 41 3e ac a7 f5 be ae 7d 09 bd 7d f7 bf bd
       0.18913725 -0.47979486 -0.033567123 -0.093733765
000380 50 a4 ac bd 60 00 15 be ab ca e1 bc 97 cf ba 3c
       -0.084297776 -0.14550924 -0.02756246 0.022804065
000390 b1 48 b4 3d a8 58 85 3d 66 b5 bd bc 1d fd ee 3d
       0.08802927 0.065110505 -0.023157787 0.11669371
0003a0 45 b5 08 be 65 c3 8e be 05 4f 14 3e ec 43 a3 be
       -0.13350399 -0.2788345 0.14483269 -0.31887758
0003b0 f1 c0 37 3e 61 38 b9 be d4 d3 fd bd a6 80 1a be
       0.17944695 -0.36175826 -0.12393919 -0.15088138
0003c0 8f b5 ee 3c 9d b0 14 be 89 8d 36 3e 12 d1 32 be
       0.029139308 -0.14520498 0.17827429 -0.17462566
0003d0 0f 5e c3 3d 8e f9 15 3e 6f 1b fa 3b 31 79 2f 3e
       0.09539425 0.14645979 0.007632665 0.17136075
0003e0 2b 23 5a 3d 40 34 80 3d 6d 65 3a be c0 d8 63 be
       0.053256195 0.06259966 -0.18202753 -0.22250652
0003f0 34 95 ea 3d 35 57 fb 3c 58 d0 00 3e db 79 75 bd
       0.114542395 0.030681232 0.12579477 -0.059930664

fc2.bias f4 [14]
000000 59 f3 89 3c 5b 01 0e be de 39 e5 3c ad fe 82 bd
       0.01683967 -0.13867705 0.027981695 -0.06396232
000010 27 42 09 3d ec 28 ab 3d dc 44 51 bd 23 2d 33 bd
       0.033510353 0.083574146 -0.05109106 -0.043744218
000020 b0 6b b9 3d 48 cb 95 3d 1f 0c e5 3d 69 78 e8 bd
       0.09053743 0.073141634 0.111839525 -0.113510914
000030 d6 e6 1d bd 21 f0 90 bd
       -0.03855022 -0.07077051
